{
  "convertedBy": "TensorFlow.js Converter v4.16.0",
  "format": "graph-model",
  "generatedBy": "2.15.0",
  "modelTopology": {
    "library": {},
    "node": [
      {
        "attr": {
          "dtype": { "type": "DT_FLOAT" },
          "value": {
            "tensor": {
              "dtype": "DT_FLOAT",
              "tensorShape": {
                "dim": [{ "size": "1" }, { "size": "256" }, { "size": "1" }]
              }
            }
          }
        },
        "name": "StatefulPartitionedCall/edited_model/layer_normalization_16/Reshape_1",
        "op": "Const"
      },
      {
        "attr": {
          "dtype": { "type": "DT_FLOAT" },
          "value": { "tensor": { "dtype": "DT_FLOAT", "tensorShape": {} } }
        },
        "name": "StatefulPartitionedCall/edited_model/model/dense_2/Gelu/mul/x",
        "op": "Const"
      },
      {
        "attr": {
          "dtype": { "type": "DT_FLOAT" },
          "value": { "tensor": { "dtype": "DT_FLOAT", "tensorShape": {} } }
        },
        "name": "StatefulPartitionedCall/edited_model/model/dense_2/Gelu/add/x",
        "op": "Const"
      },
      {
        "attr": {
          "dtype": { "type": "DT_INT32" },
          "value": {
            "tensor": {
              "dtype": "DT_INT32",
              "tensorShape": { "dim": [{ "size": "1" }] }
            }
          }
        },
        "name": "StatefulPartitionedCall/edited_model/model/dense_2/Tensordot/Const",
        "op": "Const"
      },
      {
        "attr": {
          "dtype": { "type": "DT_INT32" },
          "value": {
            "tensor": {
              "dtype": "DT_INT32",
              "tensorShape": { "dim": [{ "size": "1" }] }
            }
          }
        },
        "name": "StatefulPartitionedCall/edited_model/model/dense_2/Tensordot/axes",
        "op": "Const"
      },
      {
        "attr": {
          "dtype": { "type": "DT_INT32" },
          "value": { "tensor": { "dtype": "DT_INT32", "tensorShape": {} } }
        },
        "name": "StatefulPartitionedCall/edited_model/model/dense_2/Tensordot/GatherV2_1/axis",
        "op": "Const"
      },
      {
        "attr": {
          "dtype": { "type": "DT_INT32" },
          "value": {
            "tensor": {
              "dtype": "DT_INT32",
              "tensorShape": { "dim": [{ "size": "1" }] }
            }
          }
        },
        "name": "StatefulPartitionedCall/edited_model/model/dense_2/Tensordot/Const_1",
        "op": "Const"
      },
      {
        "attr": {
          "dtype": { "type": "DT_FLOAT" },
          "value": {
            "tensor": {
              "dtype": "DT_FLOAT",
              "tensorShape": { "dim": [{ "size": "256" }, { "size": "256" }] }
            }
          }
        },
        "name": "StatefulPartitionedCall/edited_model/model/dense_2/Tensordot/ReadVariableOp",
        "op": "Const"
      },
      {
        "attr": {
          "dtype": { "type": "DT_FLOAT" },
          "value": { "tensor": { "dtype": "DT_FLOAT", "tensorShape": {} } }
        },
        "name": "StatefulPartitionedCall/edited_model/model/dense_1/Gelu/mul/x",
        "op": "Const"
      },
      {
        "attr": {
          "dtype": { "type": "DT_FLOAT" },
          "value": { "tensor": { "dtype": "DT_FLOAT", "tensorShape": {} } }
        },
        "name": "StatefulPartitionedCall/edited_model/model/dense_1/Gelu/add/x",
        "op": "Const"
      },
      {
        "attr": {
          "dtype": { "type": "DT_INT32" },
          "value": {
            "tensor": {
              "dtype": "DT_INT32",
              "tensorShape": { "dim": [{ "size": "1" }] }
            }
          }
        },
        "name": "StatefulPartitionedCall/edited_model/model/dense_1/Tensordot/Const",
        "op": "Const"
      },
      {
        "attr": {
          "dtype": { "type": "DT_INT32" },
          "value": {
            "tensor": {
              "dtype": "DT_INT32",
              "tensorShape": { "dim": [{ "size": "1" }] }
            }
          }
        },
        "name": "StatefulPartitionedCall/edited_model/model/dense_1/Tensordot/axes",
        "op": "Const"
      },
      {
        "attr": {
          "dtype": { "type": "DT_INT32" },
          "value": { "tensor": { "dtype": "DT_INT32", "tensorShape": {} } }
        },
        "name": "StatefulPartitionedCall/edited_model/model/dense_1/Tensordot/GatherV2_1/axis",
        "op": "Const"
      },
      {
        "attr": {
          "dtype": { "type": "DT_INT32" },
          "value": {
            "tensor": {
              "dtype": "DT_INT32",
              "tensorShape": { "dim": [{ "size": "1" }] }
            }
          }
        },
        "name": "StatefulPartitionedCall/edited_model/model/dense_1/Tensordot/Const_1",
        "op": "Const"
      },
      {
        "attr": {
          "dtype": { "type": "DT_FLOAT" },
          "value": {
            "tensor": {
              "dtype": "DT_FLOAT",
              "tensorShape": { "dim": [{ "size": "512" }, { "size": "256" }] }
            }
          }
        },
        "name": "StatefulPartitionedCall/edited_model/model/dense_1/Tensordot/ReadVariableOp",
        "op": "Const"
      },
      {
        "attr": {
          "dtype": { "type": "DT_FLOAT" },
          "value": {
            "tensor": {
              "dtype": "DT_FLOAT",
              "tensorShape": {
                "dim": [{ "size": "1" }, { "size": "384" }, { "size": "1" }]
              }
            }
          }
        },
        "name": "StatefulPartitionedCall/edited_model/model/layer_normalization/Reshape_1",
        "op": "Const"
      },
      {
        "attr": {
          "dtype": { "type": "DT_FLOAT" },
          "value": { "tensor": { "dtype": "DT_FLOAT", "tensorShape": {} } }
        },
        "name": "StatefulPartitionedCall/edited_model/model/dense/Gelu/mul/x",
        "op": "Const"
      },
      {
        "attr": {
          "dtype": { "type": "DT_FLOAT" },
          "value": { "tensor": { "dtype": "DT_FLOAT", "tensorShape": {} } }
        },
        "name": "StatefulPartitionedCall/edited_model/model/dense/Gelu/add/x",
        "op": "Const"
      },
      {
        "attr": {
          "dtype": { "type": "DT_INT32" },
          "value": {
            "tensor": {
              "dtype": "DT_INT32",
              "tensorShape": { "dim": [{ "size": "1" }] }
            }
          }
        },
        "name": "StatefulPartitionedCall/edited_model/model/dense/Tensordot/Const",
        "op": "Const"
      },
      {
        "attr": {
          "dtype": { "type": "DT_INT32" },
          "value": {
            "tensor": {
              "dtype": "DT_INT32",
              "tensorShape": { "dim": [{ "size": "1" }] }
            }
          }
        },
        "name": "StatefulPartitionedCall/edited_model/model/dense/Tensordot/axes",
        "op": "Const"
      },
      {
        "attr": {
          "dtype": { "type": "DT_INT32" },
          "value": { "tensor": { "dtype": "DT_INT32", "tensorShape": {} } }
        },
        "name": "StatefulPartitionedCall/edited_model/model/dense/Tensordot/GatherV2_1/axis",
        "op": "Const"
      },
      {
        "attr": {
          "dtype": { "type": "DT_INT32" },
          "value": {
            "tensor": {
              "dtype": "DT_INT32",
              "tensorShape": { "dim": [{ "size": "1" }] }
            }
          }
        },
        "name": "StatefulPartitionedCall/edited_model/model/dense/Tensordot/Const_1",
        "op": "Const"
      },
      {
        "attr": {
          "dtype": { "type": "DT_FLOAT" },
          "value": {
            "tensor": {
              "dtype": "DT_FLOAT",
              "tensorShape": { "dim": [{ "size": "257" }, { "size": "128" }] }
            }
          }
        },
        "name": "StatefulPartitionedCall/edited_model/model/dense/Tensordot/ReadVariableOp",
        "op": "Const"
      },
      {
        "attr": {
          "dtype": { "type": "DT_INT32" },
          "value": { "tensor": { "dtype": "DT_INT32", "tensorShape": {} } }
        },
        "name": "StatefulPartitionedCall/edited_model/model/tf.one_hot/one_hot/depth",
        "op": "Const"
      },
      {
        "attr": {
          "dtype": { "type": "DT_FLOAT" },
          "value": { "tensor": { "dtype": "DT_FLOAT", "tensorShape": {} } }
        },
        "name": "StatefulPartitionedCall/edited_model/model/tf.one_hot/one_hot/on_value",
        "op": "Const"
      },
      {
        "attr": {
          "dtype": { "type": "DT_FLOAT" },
          "value": { "tensor": { "dtype": "DT_FLOAT", "tensorShape": {} } }
        },
        "name": "StatefulPartitionedCall/edited_model/model/tf.one_hot/one_hot/off_value",
        "op": "Const"
      },
      {
        "attr": {
          "dtype": { "type": "DT_INT32" },
          "value": {
            "tensor": {
              "dtype": "DT_INT32",
              "tensorShape": { "dim": [{ "size": "2" }] }
            }
          }
        },
        "name": "StatefulPartitionedCall/edited_model/model/dense/Tensordot/free",
        "op": "Const"
      },
      {
        "attr": {
          "dtype": { "type": "DT_INT32" },
          "value": { "tensor": { "dtype": "DT_INT32", "tensorShape": {} } }
        },
        "name": "StatefulPartitionedCall/edited_model/model/dense/Tensordot/GatherV2/axis",
        "op": "Const"
      },
      {
        "attr": {
          "dtype": { "type": "DT_INT32" },
          "value": {
            "tensor": {
              "dtype": "DT_INT32",
              "tensorShape": { "dim": [{ "size": "1" }] }
            }
          }
        },
        "name": "StatefulPartitionedCall/edited_model/model/dense/Tensordot/Const_2",
        "op": "Const"
      },
      {
        "attr": {
          "dtype": { "type": "DT_INT32" },
          "value": { "tensor": { "dtype": "DT_INT32", "tensorShape": {} } }
        },
        "name": "StatefulPartitionedCall/edited_model/model/dense/Tensordot/concat_1/axis",
        "op": "Const"
      },
      {
        "attr": {
          "dtype": { "type": "DT_FLOAT" },
          "value": {
            "tensor": {
              "dtype": "DT_FLOAT",
              "tensorShape": { "dim": [{ "size": "128" }] }
            }
          }
        },
        "name": "StatefulPartitionedCall/edited_model/model/dense/BiasAdd/ReadVariableOp",
        "op": "Const"
      },
      {
        "attr": {
          "dtype": { "type": "DT_FLOAT" },
          "value": { "tensor": { "dtype": "DT_FLOAT", "tensorShape": {} } }
        },
        "name": "ConstantFolding/StatefulPartitionedCall/edited_model/model/dense/Gelu/truediv_recip",
        "op": "Const"
      },
      {
        "attr": {
          "dtype": { "type": "DT_INT32" },
          "value": {
            "tensor": {
              "dtype": "DT_INT32",
              "tensorShape": { "dim": [{ "size": "1" }] }
            }
          }
        },
        "name": "StatefulPartitionedCall/edited_model/model/reshape/strided_slice/stack",
        "op": "Const"
      },
      {
        "attr": {
          "dtype": { "type": "DT_INT32" },
          "value": {
            "tensor": {
              "dtype": "DT_INT32",
              "tensorShape": { "dim": [{ "size": "1" }] }
            }
          }
        },
        "name": "StatefulPartitionedCall/edited_model/model/reshape/strided_slice/stack_1",
        "op": "Const"
      },
      {
        "attr": {
          "dtype": { "type": "DT_INT32" },
          "value": {
            "tensor": {
              "dtype": "DT_INT32",
              "tensorShape": { "dim": [{ "size": "1" }] }
            }
          }
        },
        "name": "StatefulPartitionedCall/edited_model/model/reshape/strided_slice/stack_2",
        "op": "Const"
      },
      {
        "attr": {
          "dtype": { "type": "DT_INT32" },
          "value": { "tensor": { "dtype": "DT_INT32", "tensorShape": {} } }
        },
        "name": "StatefulPartitionedCall/edited_model/model/reshape/Reshape/shape/1",
        "op": "Const"
      },
      {
        "attr": {
          "dtype": { "type": "DT_INT32" },
          "value": { "tensor": { "dtype": "DT_INT32", "tensorShape": {} } }
        },
        "name": "StatefulPartitionedCall/edited_model/model/reshape/Reshape/shape/2",
        "op": "Const"
      },
      {
        "attr": {
          "dtype": { "type": "DT_INT32" },
          "value": {
            "tensor": {
              "dtype": "DT_INT32",
              "tensorShape": { "dim": [{ "size": "1" }] }
            }
          }
        },
        "name": "StatefulPartitionedCall/edited_model/model/layer_normalization/moments/mean/reduction_indices",
        "op": "Const"
      },
      {
        "attr": {
          "dtype": { "type": "DT_INT32" },
          "value": {
            "tensor": {
              "dtype": "DT_INT32",
              "tensorShape": { "dim": [{ "size": "1" }] }
            }
          }
        },
        "name": "StatefulPartitionedCall/edited_model/model/layer_normalization/moments/variance/reduction_indices",
        "op": "Const"
      },
      {
        "attr": {
          "dtype": { "type": "DT_FLOAT" },
          "value": { "tensor": { "dtype": "DT_FLOAT", "tensorShape": {} } }
        },
        "name": "StatefulPartitionedCall/edited_model/model/layer_normalization/batchnorm/add/y",
        "op": "Const"
      },
      {
        "attr": {
          "dtype": { "type": "DT_FLOAT" },
          "value": {
            "tensor": {
              "dtype": "DT_FLOAT",
              "tensorShape": {
                "dim": [{ "size": "1" }, { "size": "384" }, { "size": "1" }]
              }
            }
          }
        },
        "name": "StatefulPartitionedCall/edited_model/model/layer_normalization/Reshape",
        "op": "Const"
      },
      {
        "attr": {
          "dtype": { "type": "DT_INT32" },
          "value": {
            "tensor": {
              "dtype": "DT_INT32",
              "tensorShape": { "dim": [{ "size": "2" }] }
            }
          }
        },
        "name": "StatefulPartitionedCall/edited_model/model/dense_1/Tensordot/free",
        "op": "Const"
      },
      {
        "attr": {
          "dtype": { "type": "DT_INT32" },
          "value": { "tensor": { "dtype": "DT_INT32", "tensorShape": {} } }
        },
        "name": "StatefulPartitionedCall/edited_model/model/dense_1/Tensordot/GatherV2/axis",
        "op": "Const"
      },
      {
        "attr": {
          "dtype": { "type": "DT_INT32" },
          "value": {
            "tensor": {
              "dtype": "DT_INT32",
              "tensorShape": { "dim": [{ "size": "1" }] }
            }
          }
        },
        "name": "StatefulPartitionedCall/edited_model/model/dense_1/Tensordot/Const_2",
        "op": "Const"
      },
      {
        "attr": {
          "dtype": { "type": "DT_INT32" },
          "value": { "tensor": { "dtype": "DT_INT32", "tensorShape": {} } }
        },
        "name": "StatefulPartitionedCall/edited_model/model/dense_1/Tensordot/concat_1/axis",
        "op": "Const"
      },
      {
        "attr": {
          "dtype": { "type": "DT_FLOAT" },
          "value": {
            "tensor": {
              "dtype": "DT_FLOAT",
              "tensorShape": { "dim": [{ "size": "256" }] }
            }
          }
        },
        "name": "StatefulPartitionedCall/edited_model/model/dense_1/BiasAdd/ReadVariableOp",
        "op": "Const"
      },
      {
        "attr": {
          "dtype": { "type": "DT_FLOAT" },
          "value": { "tensor": { "dtype": "DT_FLOAT", "tensorShape": {} } }
        },
        "name": "ConstantFolding/StatefulPartitionedCall/edited_model/model/dense_1/Gelu/truediv_recip",
        "op": "Const"
      },
      {
        "attr": {
          "dtype": { "type": "DT_INT32" },
          "value": {
            "tensor": {
              "dtype": "DT_INT32",
              "tensorShape": { "dim": [{ "size": "2" }] }
            }
          }
        },
        "name": "StatefulPartitionedCall/edited_model/model/dense_2/Tensordot/free",
        "op": "Const"
      },
      {
        "attr": {
          "dtype": { "type": "DT_INT32" },
          "value": { "tensor": { "dtype": "DT_INT32", "tensorShape": {} } }
        },
        "name": "StatefulPartitionedCall/edited_model/model/dense_2/Tensordot/GatherV2/axis",
        "op": "Const"
      },
      {
        "attr": {
          "dtype": { "type": "DT_INT32" },
          "value": {
            "tensor": {
              "dtype": "DT_INT32",
              "tensorShape": { "dim": [{ "size": "1" }] }
            }
          }
        },
        "name": "StatefulPartitionedCall/edited_model/model/dense_2/Tensordot/Const_2",
        "op": "Const"
      },
      {
        "attr": {
          "dtype": { "type": "DT_INT32" },
          "value": { "tensor": { "dtype": "DT_INT32", "tensorShape": {} } }
        },
        "name": "StatefulPartitionedCall/edited_model/model/dense_2/Tensordot/concat_1/axis",
        "op": "Const"
      },
      {
        "attr": {
          "dtype": { "type": "DT_FLOAT" },
          "value": {
            "tensor": {
              "dtype": "DT_FLOAT",
              "tensorShape": { "dim": [{ "size": "256" }] }
            }
          }
        },
        "name": "StatefulPartitionedCall/edited_model/model/dense_2/BiasAdd/ReadVariableOp",
        "op": "Const"
      },
      {
        "attr": {
          "dtype": { "type": "DT_FLOAT" },
          "value": { "tensor": { "dtype": "DT_FLOAT", "tensorShape": {} } }
        },
        "name": "ConstantFolding/StatefulPartitionedCall/edited_model/model/dense_2/Gelu/truediv_recip",
        "op": "Const"
      },
      {
        "attr": {
          "dtype": { "type": "DT_INT32" },
          "value": { "tensor": { "dtype": "DT_INT32", "tensorShape": {} } }
        },
        "name": "StatefulPartitionedCall/edited_model/model/global_max_pooling1d/Max/reduction_indices",
        "op": "Const"
      },
      {
        "attr": {
          "dtype": { "type": "DT_INT32" },
          "value": {
            "tensor": {
              "dtype": "DT_INT32",
              "tensorShape": { "dim": [{ "size": "1" }] }
            }
          }
        },
        "name": "StatefulPartitionedCall/edited_model/reshape_0/strided_slice/stack",
        "op": "Const"
      },
      {
        "attr": {
          "dtype": { "type": "DT_INT32" },
          "value": {
            "tensor": {
              "dtype": "DT_INT32",
              "tensorShape": { "dim": [{ "size": "1" }] }
            }
          }
        },
        "name": "StatefulPartitionedCall/edited_model/reshape_0/strided_slice/stack_1",
        "op": "Const"
      },
      {
        "attr": {
          "dtype": { "type": "DT_INT32" },
          "value": {
            "tensor": {
              "dtype": "DT_INT32",
              "tensorShape": { "dim": [{ "size": "1" }] }
            }
          }
        },
        "name": "StatefulPartitionedCall/edited_model/reshape_0/strided_slice/stack_2",
        "op": "Const"
      },
      {
        "attr": {
          "dtype": { "type": "DT_INT32" },
          "value": { "tensor": { "dtype": "DT_INT32", "tensorShape": {} } }
        },
        "name": "StatefulPartitionedCall/edited_model/reshape_0/Reshape/shape/1",
        "op": "Const"
      },
      {
        "attr": {
          "dtype": { "type": "DT_INT32" },
          "value": { "tensor": { "dtype": "DT_INT32", "tensorShape": {} } }
        },
        "name": "StatefulPartitionedCall/edited_model/reshape_0/Reshape/shape/2",
        "op": "Const"
      },
      {
        "attr": {
          "dtype": { "type": "DT_INT32" },
          "value": {
            "tensor": {
              "dtype": "DT_INT32",
              "tensorShape": { "dim": [{ "size": "1" }] }
            }
          }
        },
        "name": "StatefulPartitionedCall/edited_model/layer_normalization_16/moments/mean/reduction_indices",
        "op": "Const"
      },
      {
        "attr": {
          "dtype": { "type": "DT_INT32" },
          "value": {
            "tensor": {
              "dtype": "DT_INT32",
              "tensorShape": { "dim": [{ "size": "1" }] }
            }
          }
        },
        "name": "StatefulPartitionedCall/edited_model/layer_normalization_16/moments/variance/reduction_indices",
        "op": "Const"
      },
      {
        "attr": {
          "dtype": { "type": "DT_FLOAT" },
          "value": { "tensor": { "dtype": "DT_FLOAT", "tensorShape": {} } }
        },
        "name": "StatefulPartitionedCall/edited_model/layer_normalization_16/batchnorm/add/y",
        "op": "Const"
      },
      {
        "attr": {
          "dtype": { "type": "DT_FLOAT" },
          "value": {
            "tensor": {
              "dtype": "DT_FLOAT",
              "tensorShape": {
                "dim": [{ "size": "1" }, { "size": "256" }, { "size": "1" }]
              }
            }
          }
        },
        "name": "StatefulPartitionedCall/edited_model/layer_normalization_16/Reshape",
        "op": "Const"
      },
      {
        "attr": {
          "dtype": { "type": "DT_INT32" },
          "value": {
            "tensor": {
              "dtype": "DT_INT32",
              "tensorShape": { "dim": [{ "size": "2" }] }
            }
          }
        },
        "name": "StatefulPartitionedCall/edited_model/flatten_15/Const",
        "op": "Const"
      },
      {
        "attr": {
          "dtype": { "type": "DT_FLOAT" },
          "value": {
            "tensor": {
              "dtype": "DT_FLOAT",
              "tensorShape": { "dim": [{ "size": "256" }, { "size": "113" }] }
            }
          }
        },
        "name": "StatefulPartitionedCall/edited_model/model_1/target_label/MatMul/ReadVariableOp",
        "op": "Const"
      },
      {
        "attr": {
          "dtype": { "type": "DT_FLOAT" },
          "value": {
            "tensor": {
              "dtype": "DT_FLOAT",
              "tensorShape": { "dim": [{ "size": "113" }] }
            }
          }
        },
        "name": "StatefulPartitionedCall/edited_model/model_1/target_label/BiasAdd/ReadVariableOp",
        "op": "Const"
      },
      {
        "attr": {
          "dtype": { "type": "DT_FLOAT" },
          "shape": {
            "shape": { "dim": [{ "size": "-1" }, { "size": "1536" }] }
          }
        },
        "name": "model_input",
        "op": "Placeholder"
      },
      {
        "attr": {
          "DstT": { "type": "DT_INT32" },
          "SrcT": { "type": "DT_FLOAT" },
          "Truncate": { "b": false }
        },
        "input": ["model_input"],
        "name": "StatefulPartitionedCall/edited_model/model/tf.cast/Cast",
        "op": "Cast"
      },
      {
        "attr": {
          "T": { "type": "DT_FLOAT" },
          "TI": { "type": "DT_INT32" },
          "axis": { "i": "-1" }
        },
        "input": [
          "StatefulPartitionedCall/edited_model/model/tf.cast/Cast",
          "StatefulPartitionedCall/edited_model/model/tf.one_hot/one_hot/depth",
          "StatefulPartitionedCall/edited_model/model/tf.one_hot/one_hot/on_value",
          "StatefulPartitionedCall/edited_model/model/tf.one_hot/one_hot/off_value"
        ],
        "name": "StatefulPartitionedCall/edited_model/model/tf.one_hot/one_hot",
        "op": "OneHot"
      },
      {
        "attr": {
          "T": { "type": "DT_FLOAT" },
          "out_type": { "type": "DT_INT32" }
        },
        "experimentalType": {
          "args": [
            {
              "args": [{ "typeId": "TFT_INT32" }],
              "typeId": "TFT_SHAPE_TENSOR"
            }
          ],
          "typeId": "TFT_PRODUCT"
        },
        "input": ["StatefulPartitionedCall/edited_model/model/tf.one_hot/one_hot"],
        "name": "StatefulPartitionedCall/edited_model/model/dense/Tensordot/Shape",
        "op": "Shape"
      },
      {
        "attr": {
          "Taxis": { "type": "DT_INT32" },
          "Tindices": { "type": "DT_INT32" },
          "Tparams": { "type": "DT_INT32" },
          "batch_dims": { "i": "0" }
        },
        "input": [
          "StatefulPartitionedCall/edited_model/model/dense/Tensordot/Shape",
          "StatefulPartitionedCall/edited_model/model/dense/Tensordot/axes",
          "StatefulPartitionedCall/edited_model/model/dense/Tensordot/GatherV2_1/axis"
        ],
        "name": "StatefulPartitionedCall/edited_model/model/dense/Tensordot/GatherV2_1",
        "op": "GatherV2"
      },
      {
        "attr": {
          "Taxis": { "type": "DT_INT32" },
          "Tindices": { "type": "DT_INT32" },
          "Tparams": { "type": "DT_INT32" },
          "batch_dims": { "i": "0" }
        },
        "input": [
          "StatefulPartitionedCall/edited_model/model/dense/Tensordot/Shape",
          "StatefulPartitionedCall/edited_model/model/dense/Tensordot/free",
          "StatefulPartitionedCall/edited_model/model/dense/Tensordot/GatherV2/axis"
        ],
        "name": "StatefulPartitionedCall/edited_model/model/dense/Tensordot/GatherV2",
        "op": "GatherV2"
      },
      {
        "attr": {
          "T": { "type": "DT_INT32" },
          "Tidx": { "type": "DT_INT32" },
          "keep_dims": { "b": false }
        },
        "input": [
          "StatefulPartitionedCall/edited_model/model/dense/Tensordot/GatherV2_1",
          "StatefulPartitionedCall/edited_model/model/dense/Tensordot/Const_1"
        ],
        "name": "StatefulPartitionedCall/edited_model/model/dense/Tensordot/Prod_1",
        "op": "Prod"
      },
      {
        "attr": {
          "T": { "type": "DT_INT32" },
          "Tidx": { "type": "DT_INT32" },
          "keep_dims": { "b": false }
        },
        "input": [
          "StatefulPartitionedCall/edited_model/model/dense/Tensordot/GatherV2",
          "StatefulPartitionedCall/edited_model/model/dense/Tensordot/Const"
        ],
        "name": "StatefulPartitionedCall/edited_model/model/dense/Tensordot/Prod",
        "op": "Prod"
      },
      {
        "attr": {
          "N": { "i": "2" },
          "T": { "type": "DT_INT32" },
          "Tidx": { "type": "DT_INT32" }
        },
        "input": [
          "StatefulPartitionedCall/edited_model/model/dense/Tensordot/GatherV2",
          "StatefulPartitionedCall/edited_model/model/dense/Tensordot/Const_2",
          "StatefulPartitionedCall/edited_model/model/dense/Tensordot/concat_1/axis"
        ],
        "name": "StatefulPartitionedCall/edited_model/model/dense/Tensordot/concat_1",
        "op": "ConcatV2"
      },
      {
        "attr": {
          "N": { "i": "2" },
          "T": { "type": "DT_INT32" },
          "axis": { "i": "0" }
        },
        "input": [
          "StatefulPartitionedCall/edited_model/model/dense/Tensordot/Prod",
          "StatefulPartitionedCall/edited_model/model/dense/Tensordot/Prod_1"
        ],
        "name": "StatefulPartitionedCall/edited_model/model/dense/Tensordot/stack",
        "op": "Pack"
      },
      {
        "attr": {
          "T": { "type": "DT_FLOAT" },
          "Tshape": { "type": "DT_INT32" }
        },
        "input": [
          "StatefulPartitionedCall/edited_model/model/tf.one_hot/one_hot",
          "StatefulPartitionedCall/edited_model/model/dense/Tensordot/stack"
        ],
        "name": "StatefulPartitionedCall/edited_model/model/dense/Tensordot/Reshape",
        "op": "Reshape"
      },
      {
        "attr": {
          "T": { "type": "DT_FLOAT" },
          "transpose_a": { "b": false },
          "transpose_b": { "b": false }
        },
        "device": "/device:CPU:0",
        "input": [
          "StatefulPartitionedCall/edited_model/model/dense/Tensordot/Reshape",
          "StatefulPartitionedCall/edited_model/model/dense/Tensordot/ReadVariableOp"
        ],
        "name": "StatefulPartitionedCall/edited_model/model/dense/Tensordot/MatMul",
        "op": "MatMul"
      },
      {
        "attr": {
          "T": { "type": "DT_FLOAT" },
          "Tshape": { "type": "DT_INT32" }
        },
        "input": [
          "StatefulPartitionedCall/edited_model/model/dense/Tensordot/MatMul",
          "StatefulPartitionedCall/edited_model/model/dense/Tensordot/concat_1"
        ],
        "name": "StatefulPartitionedCall/edited_model/model/dense/Tensordot",
        "op": "Reshape"
      },
      {
        "attr": {
          "T": { "type": "DT_FLOAT" },
          "data_format": { "s": "TkhXQw==" }
        },
        "input": [
          "StatefulPartitionedCall/edited_model/model/dense/Tensordot",
          "StatefulPartitionedCall/edited_model/model/dense/BiasAdd/ReadVariableOp"
        ],
        "name": "StatefulPartitionedCall/edited_model/model/dense/BiasAdd",
        "op": "BiasAdd"
      },
      {
        "attr": {
          "T": { "type": "DT_FLOAT" },
          "_grappler_ArithmeticOptimizer_MinimizeBroadcasts": { "b": true }
        },
        "input": [
          "StatefulPartitionedCall/edited_model/model/dense/Gelu/mul/x",
          "StatefulPartitionedCall/edited_model/model/dense/BiasAdd"
        ],
        "name": "StatefulPartitionedCall/edited_model/model/dense/Gelu/mul",
        "op": "Mul"
      },
      {
        "attr": { "T": { "type": "DT_FLOAT" } },
        "input": [
          "StatefulPartitionedCall/edited_model/model/dense/BiasAdd",
          "ConstantFolding/StatefulPartitionedCall/edited_model/model/dense/Gelu/truediv_recip"
        ],
        "name": "StatefulPartitionedCall/edited_model/model/dense/Gelu/truediv",
        "op": "Mul"
      },
      {
        "attr": { "T": { "type": "DT_FLOAT" } },
        "input": ["StatefulPartitionedCall/edited_model/model/dense/Gelu/truediv"],
        "name": "StatefulPartitionedCall/edited_model/model/dense/Gelu/Erf",
        "op": "Erf"
      },
      {
        "attr": { "T": { "type": "DT_FLOAT" } },
        "input": [
          "StatefulPartitionedCall/edited_model/model/dense/Gelu/add/x",
          "StatefulPartitionedCall/edited_model/model/dense/Gelu/Erf"
        ],
        "name": "StatefulPartitionedCall/edited_model/model/dense/Gelu/add",
        "op": "AddV2"
      },
      {
        "attr": {
          "T": { "type": "DT_FLOAT" },
          "_grappler_ArithmeticOptimizer_MinimizeBroadcasts": { "b": true }
        },
        "input": [
          "StatefulPartitionedCall/edited_model/model/dense/Gelu/mul",
          "StatefulPartitionedCall/edited_model/model/dense/Gelu/add"
        ],
        "name": "StatefulPartitionedCall/edited_model/model/dense/Gelu/mul_1",
        "op": "Mul"
      },
      {
        "attr": {
          "T": { "type": "DT_FLOAT" },
          "out_type": { "type": "DT_INT32" }
        },
        "experimentalType": {
          "args": [
            {
              "args": [{ "typeId": "TFT_INT32" }],
              "typeId": "TFT_SHAPE_TENSOR"
            }
          ],
          "typeId": "TFT_PRODUCT"
        },
        "input": ["StatefulPartitionedCall/edited_model/model/dense/Gelu/mul_1"],
        "name": "StatefulPartitionedCall/edited_model/model/reshape/Shape",
        "op": "Shape"
      },
      {
        "attr": {
          "Index": { "type": "DT_INT32" },
          "T": { "type": "DT_INT32" },
          "begin_mask": { "i": "0" },
          "ellipsis_mask": { "i": "0" },
          "end_mask": { "i": "0" },
          "new_axis_mask": { "i": "0" },
          "shrink_axis_mask": { "i": "1" }
        },
        "input": [
          "StatefulPartitionedCall/edited_model/model/reshape/Shape",
          "StatefulPartitionedCall/edited_model/model/reshape/strided_slice/stack",
          "StatefulPartitionedCall/edited_model/model/reshape/strided_slice/stack_1",
          "StatefulPartitionedCall/edited_model/model/reshape/strided_slice/stack_2"
        ],
        "name": "StatefulPartitionedCall/edited_model/model/reshape/strided_slice",
        "op": "StridedSlice"
      },
      {
        "attr": {
          "N": { "i": "3" },
          "T": { "type": "DT_INT32" },
          "axis": { "i": "0" }
        },
        "input": [
          "StatefulPartitionedCall/edited_model/model/reshape/strided_slice",
          "StatefulPartitionedCall/edited_model/model/reshape/Reshape/shape/1",
          "StatefulPartitionedCall/edited_model/model/reshape/Reshape/shape/2"
        ],
        "name": "StatefulPartitionedCall/edited_model/model/reshape/Reshape/shape",
        "op": "Pack"
      },
      {
        "attr": {
          "T": { "type": "DT_FLOAT" },
          "Tshape": { "type": "DT_INT32" }
        },
        "input": [
          "StatefulPartitionedCall/edited_model/model/dense/Gelu/mul_1",
          "StatefulPartitionedCall/edited_model/model/reshape/Reshape/shape"
        ],
        "name": "StatefulPartitionedCall/edited_model/model/reshape/Reshape",
        "op": "Reshape"
      },
      {
        "attr": {
          "T": { "type": "DT_FLOAT" },
          "Tidx": { "type": "DT_INT32" },
          "keep_dims": { "b": true }
        },
        "input": [
          "StatefulPartitionedCall/edited_model/model/reshape/Reshape",
          "StatefulPartitionedCall/edited_model/model/layer_normalization/moments/mean/reduction_indices"
        ],
        "name": "StatefulPartitionedCall/edited_model/model/layer_normalization/moments/mean",
        "op": "Mean"
      },
      {
        "attr": { "T": { "type": "DT_FLOAT" } },
        "input": [
          "StatefulPartitionedCall/edited_model/model/reshape/Reshape",
          "StatefulPartitionedCall/edited_model/model/layer_normalization/moments/mean"
        ],
        "name": "StatefulPartitionedCall/edited_model/model/layer_normalization/moments/SquaredDifference",
        "op": "SquaredDifference"
      },
      {
        "attr": {
          "T": { "type": "DT_FLOAT" },
          "Tidx": { "type": "DT_INT32" },
          "keep_dims": { "b": true }
        },
        "input": [
          "StatefulPartitionedCall/edited_model/model/layer_normalization/moments/SquaredDifference",
          "StatefulPartitionedCall/edited_model/model/layer_normalization/moments/variance/reduction_indices"
        ],
        "name": "StatefulPartitionedCall/edited_model/model/layer_normalization/moments/variance",
        "op": "Mean"
      },
      {
        "attr": { "T": { "type": "DT_FLOAT" } },
        "input": [
          "StatefulPartitionedCall/edited_model/model/layer_normalization/moments/variance",
          "StatefulPartitionedCall/edited_model/model/layer_normalization/batchnorm/add/y"
        ],
        "name": "StatefulPartitionedCall/edited_model/model/layer_normalization/batchnorm/add",
        "op": "AddV2"
      },
      {
        "attr": { "T": { "type": "DT_FLOAT" } },
        "input": ["StatefulPartitionedCall/edited_model/model/layer_normalization/batchnorm/add"],
        "name": "StatefulPartitionedCall/edited_model/model/layer_normalization/batchnorm/Rsqrt",
        "op": "Rsqrt"
      },
      {
        "attr": { "T": { "type": "DT_FLOAT" } },
        "input": [
          "StatefulPartitionedCall/edited_model/model/layer_normalization/batchnorm/Rsqrt",
          "StatefulPartitionedCall/edited_model/model/layer_normalization/Reshape"
        ],
        "name": "StatefulPartitionedCall/edited_model/model/layer_normalization/batchnorm/mul",
        "op": "Mul"
      },
      {
        "attr": { "T": { "type": "DT_FLOAT" } },
        "input": [
          "StatefulPartitionedCall/edited_model/model/layer_normalization/moments/mean",
          "StatefulPartitionedCall/edited_model/model/layer_normalization/batchnorm/mul"
        ],
        "name": "StatefulPartitionedCall/edited_model/model/layer_normalization/batchnorm/mul_2",
        "op": "Mul"
      },
      {
        "attr": { "T": { "type": "DT_FLOAT" } },
        "input": [
          "StatefulPartitionedCall/edited_model/model/reshape/Reshape",
          "StatefulPartitionedCall/edited_model/model/layer_normalization/batchnorm/mul"
        ],
        "name": "StatefulPartitionedCall/edited_model/model/layer_normalization/batchnorm/mul_1",
        "op": "Mul"
      },
      {
        "attr": { "T": { "type": "DT_FLOAT" } },
        "input": [
          "StatefulPartitionedCall/edited_model/model/layer_normalization/Reshape_1",
          "StatefulPartitionedCall/edited_model/model/layer_normalization/batchnorm/mul_2"
        ],
        "name": "StatefulPartitionedCall/edited_model/model/layer_normalization/batchnorm/sub",
        "op": "Sub"
      },
      {
        "attr": { "T": { "type": "DT_FLOAT" } },
        "input": [
          "StatefulPartitionedCall/edited_model/model/layer_normalization/batchnorm/mul_1",
          "StatefulPartitionedCall/edited_model/model/layer_normalization/batchnorm/sub"
        ],
        "name": "StatefulPartitionedCall/edited_model/model/layer_normalization/batchnorm/add_1",
        "op": "AddV2"
      },
      {
        "attr": {
          "T": { "type": "DT_FLOAT" },
          "out_type": { "type": "DT_INT32" }
        },
        "experimentalType": {
          "args": [
            {
              "args": [{ "typeId": "TFT_INT32" }],
              "typeId": "TFT_SHAPE_TENSOR"
            }
          ],
          "typeId": "TFT_PRODUCT"
        },
        "input": ["StatefulPartitionedCall/edited_model/model/layer_normalization/batchnorm/add_1"],
        "name": "StatefulPartitionedCall/edited_model/model/dense_1/Tensordot/Shape",
        "op": "Shape"
      },
      {
        "attr": {
          "Taxis": { "type": "DT_INT32" },
          "Tindices": { "type": "DT_INT32" },
          "Tparams": { "type": "DT_INT32" },
          "batch_dims": { "i": "0" }
        },
        "input": [
          "StatefulPartitionedCall/edited_model/model/dense_1/Tensordot/Shape",
          "StatefulPartitionedCall/edited_model/model/dense_1/Tensordot/axes",
          "StatefulPartitionedCall/edited_model/model/dense_1/Tensordot/GatherV2_1/axis"
        ],
        "name": "StatefulPartitionedCall/edited_model/model/dense_1/Tensordot/GatherV2_1",
        "op": "GatherV2"
      },
      {
        "attr": {
          "Taxis": { "type": "DT_INT32" },
          "Tindices": { "type": "DT_INT32" },
          "Tparams": { "type": "DT_INT32" },
          "batch_dims": { "i": "0" }
        },
        "input": [
          "StatefulPartitionedCall/edited_model/model/dense_1/Tensordot/Shape",
          "StatefulPartitionedCall/edited_model/model/dense_1/Tensordot/free",
          "StatefulPartitionedCall/edited_model/model/dense_1/Tensordot/GatherV2/axis"
        ],
        "name": "StatefulPartitionedCall/edited_model/model/dense_1/Tensordot/GatherV2",
        "op": "GatherV2"
      },
      {
        "attr": {
          "T": { "type": "DT_INT32" },
          "Tidx": { "type": "DT_INT32" },
          "keep_dims": { "b": false }
        },
        "input": [
          "StatefulPartitionedCall/edited_model/model/dense_1/Tensordot/GatherV2_1",
          "StatefulPartitionedCall/edited_model/model/dense_1/Tensordot/Const_1"
        ],
        "name": "StatefulPartitionedCall/edited_model/model/dense_1/Tensordot/Prod_1",
        "op": "Prod"
      },
      {
        "attr": {
          "T": { "type": "DT_INT32" },
          "Tidx": { "type": "DT_INT32" },
          "keep_dims": { "b": false }
        },
        "input": [
          "StatefulPartitionedCall/edited_model/model/dense_1/Tensordot/GatherV2",
          "StatefulPartitionedCall/edited_model/model/dense_1/Tensordot/Const"
        ],
        "name": "StatefulPartitionedCall/edited_model/model/dense_1/Tensordot/Prod",
        "op": "Prod"
      },
      {
        "attr": {
          "N": { "i": "2" },
          "T": { "type": "DT_INT32" },
          "Tidx": { "type": "DT_INT32" }
        },
        "input": [
          "StatefulPartitionedCall/edited_model/model/dense_1/Tensordot/GatherV2",
          "StatefulPartitionedCall/edited_model/model/dense_1/Tensordot/Const_2",
          "StatefulPartitionedCall/edited_model/model/dense_1/Tensordot/concat_1/axis"
        ],
        "name": "StatefulPartitionedCall/edited_model/model/dense_1/Tensordot/concat_1",
        "op": "ConcatV2"
      },
      {
        "attr": {
          "N": { "i": "2" },
          "T": { "type": "DT_INT32" },
          "axis": { "i": "0" }
        },
        "input": [
          "StatefulPartitionedCall/edited_model/model/dense_1/Tensordot/Prod",
          "StatefulPartitionedCall/edited_model/model/dense_1/Tensordot/Prod_1"
        ],
        "name": "StatefulPartitionedCall/edited_model/model/dense_1/Tensordot/stack",
        "op": "Pack"
      },
      {
        "attr": {
          "T": { "type": "DT_FLOAT" },
          "Tshape": { "type": "DT_INT32" }
        },
        "input": [
          "StatefulPartitionedCall/edited_model/model/layer_normalization/batchnorm/add_1",
          "StatefulPartitionedCall/edited_model/model/dense_1/Tensordot/stack"
        ],
        "name": "StatefulPartitionedCall/edited_model/model/dense_1/Tensordot/Reshape",
        "op": "Reshape"
      },
      {
        "attr": {
          "T": { "type": "DT_FLOAT" },
          "transpose_a": { "b": false },
          "transpose_b": { "b": false }
        },
        "device": "/device:CPU:0",
        "input": [
          "StatefulPartitionedCall/edited_model/model/dense_1/Tensordot/Reshape",
          "StatefulPartitionedCall/edited_model/model/dense_1/Tensordot/ReadVariableOp"
        ],
        "name": "StatefulPartitionedCall/edited_model/model/dense_1/Tensordot/MatMul",
        "op": "MatMul"
      },
      {
        "attr": {
          "T": { "type": "DT_FLOAT" },
          "Tshape": { "type": "DT_INT32" }
        },
        "input": [
          "StatefulPartitionedCall/edited_model/model/dense_1/Tensordot/MatMul",
          "StatefulPartitionedCall/edited_model/model/dense_1/Tensordot/concat_1"
        ],
        "name": "StatefulPartitionedCall/edited_model/model/dense_1/Tensordot",
        "op": "Reshape"
      },
      {
        "attr": {
          "T": { "type": "DT_FLOAT" },
          "data_format": { "s": "TkhXQw==" }
        },
        "input": [
          "StatefulPartitionedCall/edited_model/model/dense_1/Tensordot",
          "StatefulPartitionedCall/edited_model/model/dense_1/BiasAdd/ReadVariableOp"
        ],
        "name": "StatefulPartitionedCall/edited_model/model/dense_1/BiasAdd",
        "op": "BiasAdd"
      },
      {
        "attr": {
          "T": { "type": "DT_FLOAT" },
          "_grappler_ArithmeticOptimizer_MinimizeBroadcasts": { "b": true }
        },
        "input": [
          "StatefulPartitionedCall/edited_model/model/dense_1/Gelu/mul/x",
          "StatefulPartitionedCall/edited_model/model/dense_1/BiasAdd"
        ],
        "name": "StatefulPartitionedCall/edited_model/model/dense_1/Gelu/mul",
        "op": "Mul"
      },
      {
        "attr": { "T": { "type": "DT_FLOAT" } },
        "input": [
          "StatefulPartitionedCall/edited_model/model/dense_1/BiasAdd",
          "ConstantFolding/StatefulPartitionedCall/edited_model/model/dense_1/Gelu/truediv_recip"
        ],
        "name": "StatefulPartitionedCall/edited_model/model/dense_1/Gelu/truediv",
        "op": "Mul"
      },
      {
        "attr": { "T": { "type": "DT_FLOAT" } },
        "input": ["StatefulPartitionedCall/edited_model/model/dense_1/Gelu/truediv"],
        "name": "StatefulPartitionedCall/edited_model/model/dense_1/Gelu/Erf",
        "op": "Erf"
      },
      {
        "attr": { "T": { "type": "DT_FLOAT" } },
        "input": [
          "StatefulPartitionedCall/edited_model/model/dense_1/Gelu/add/x",
          "StatefulPartitionedCall/edited_model/model/dense_1/Gelu/Erf"
        ],
        "name": "StatefulPartitionedCall/edited_model/model/dense_1/Gelu/add",
        "op": "AddV2"
      },
      {
        "attr": {
          "T": { "type": "DT_FLOAT" },
          "_grappler_ArithmeticOptimizer_MinimizeBroadcasts": { "b": true }
        },
        "input": [
          "StatefulPartitionedCall/edited_model/model/dense_1/Gelu/mul",
          "StatefulPartitionedCall/edited_model/model/dense_1/Gelu/add"
        ],
        "name": "StatefulPartitionedCall/edited_model/model/dense_1/Gelu/mul_1",
        "op": "Mul"
      },
      {
        "attr": {
          "T": { "type": "DT_FLOAT" },
          "out_type": { "type": "DT_INT32" }
        },
        "experimentalType": {
          "args": [
            {
              "args": [{ "typeId": "TFT_INT32" }],
              "typeId": "TFT_SHAPE_TENSOR"
            }
          ],
          "typeId": "TFT_PRODUCT"
        },
        "input": ["StatefulPartitionedCall/edited_model/model/dense_1/Gelu/mul_1"],
        "name": "StatefulPartitionedCall/edited_model/model/dense_2/Tensordot/Shape",
        "op": "Shape"
      },
      {
        "attr": {
          "Taxis": { "type": "DT_INT32" },
          "Tindices": { "type": "DT_INT32" },
          "Tparams": { "type": "DT_INT32" },
          "batch_dims": { "i": "0" }
        },
        "input": [
          "StatefulPartitionedCall/edited_model/model/dense_2/Tensordot/Shape",
          "StatefulPartitionedCall/edited_model/model/dense_2/Tensordot/axes",
          "StatefulPartitionedCall/edited_model/model/dense_2/Tensordot/GatherV2_1/axis"
        ],
        "name": "StatefulPartitionedCall/edited_model/model/dense_2/Tensordot/GatherV2_1",
        "op": "GatherV2"
      },
      {
        "attr": {
          "Taxis": { "type": "DT_INT32" },
          "Tindices": { "type": "DT_INT32" },
          "Tparams": { "type": "DT_INT32" },
          "batch_dims": { "i": "0" }
        },
        "input": [
          "StatefulPartitionedCall/edited_model/model/dense_2/Tensordot/Shape",
          "StatefulPartitionedCall/edited_model/model/dense_2/Tensordot/free",
          "StatefulPartitionedCall/edited_model/model/dense_2/Tensordot/GatherV2/axis"
        ],
        "name": "StatefulPartitionedCall/edited_model/model/dense_2/Tensordot/GatherV2",
        "op": "GatherV2"
      },
      {
        "attr": {
          "T": { "type": "DT_INT32" },
          "Tidx": { "type": "DT_INT32" },
          "keep_dims": { "b": false }
        },
        "input": [
          "StatefulPartitionedCall/edited_model/model/dense_2/Tensordot/GatherV2_1",
          "StatefulPartitionedCall/edited_model/model/dense_2/Tensordot/Const_1"
        ],
        "name": "StatefulPartitionedCall/edited_model/model/dense_2/Tensordot/Prod_1",
        "op": "Prod"
      },
      {
        "attr": {
          "T": { "type": "DT_INT32" },
          "Tidx": { "type": "DT_INT32" },
          "keep_dims": { "b": false }
        },
        "input": [
          "StatefulPartitionedCall/edited_model/model/dense_2/Tensordot/GatherV2",
          "StatefulPartitionedCall/edited_model/model/dense_2/Tensordot/Const"
        ],
        "name": "StatefulPartitionedCall/edited_model/model/dense_2/Tensordot/Prod",
        "op": "Prod"
      },
      {
        "attr": {
          "N": { "i": "2" },
          "T": { "type": "DT_INT32" },
          "Tidx": { "type": "DT_INT32" }
        },
        "input": [
          "StatefulPartitionedCall/edited_model/model/dense_2/Tensordot/GatherV2",
          "StatefulPartitionedCall/edited_model/model/dense_2/Tensordot/Const_2",
          "StatefulPartitionedCall/edited_model/model/dense_2/Tensordot/concat_1/axis"
        ],
        "name": "StatefulPartitionedCall/edited_model/model/dense_2/Tensordot/concat_1",
        "op": "ConcatV2"
      },
      {
        "attr": {
          "N": { "i": "2" },
          "T": { "type": "DT_INT32" },
          "axis": { "i": "0" }
        },
        "input": [
          "StatefulPartitionedCall/edited_model/model/dense_2/Tensordot/Prod",
          "StatefulPartitionedCall/edited_model/model/dense_2/Tensordot/Prod_1"
        ],
        "name": "StatefulPartitionedCall/edited_model/model/dense_2/Tensordot/stack",
        "op": "Pack"
      },
      {
        "attr": {
          "T": { "type": "DT_FLOAT" },
          "Tshape": { "type": "DT_INT32" }
        },
        "input": [
          "StatefulPartitionedCall/edited_model/model/dense_1/Gelu/mul_1",
          "StatefulPartitionedCall/edited_model/model/dense_2/Tensordot/stack"
        ],
        "name": "StatefulPartitionedCall/edited_model/model/dense_2/Tensordot/Reshape",
        "op": "Reshape"
      },
      {
        "attr": {
          "T": { "type": "DT_FLOAT" },
          "transpose_a": { "b": false },
          "transpose_b": { "b": false }
        },
        "device": "/device:CPU:0",
        "input": [
          "StatefulPartitionedCall/edited_model/model/dense_2/Tensordot/Reshape",
          "StatefulPartitionedCall/edited_model/model/dense_2/Tensordot/ReadVariableOp"
        ],
        "name": "StatefulPartitionedCall/edited_model/model/dense_2/Tensordot/MatMul",
        "op": "MatMul"
      },
      {
        "attr": {
          "T": { "type": "DT_FLOAT" },
          "Tshape": { "type": "DT_INT32" }
        },
        "input": [
          "StatefulPartitionedCall/edited_model/model/dense_2/Tensordot/MatMul",
          "StatefulPartitionedCall/edited_model/model/dense_2/Tensordot/concat_1"
        ],
        "name": "StatefulPartitionedCall/edited_model/model/dense_2/Tensordot",
        "op": "Reshape"
      },
      {
        "attr": {
          "T": { "type": "DT_FLOAT" },
          "data_format": { "s": "TkhXQw==" }
        },
        "input": [
          "StatefulPartitionedCall/edited_model/model/dense_2/Tensordot",
          "StatefulPartitionedCall/edited_model/model/dense_2/BiasAdd/ReadVariableOp"
        ],
        "name": "StatefulPartitionedCall/edited_model/model/dense_2/BiasAdd",
        "op": "BiasAdd"
      },
      {
        "attr": {
          "T": { "type": "DT_FLOAT" },
          "_grappler_ArithmeticOptimizer_MinimizeBroadcasts": { "b": true }
        },
        "input": [
          "StatefulPartitionedCall/edited_model/model/dense_2/Gelu/mul/x",
          "StatefulPartitionedCall/edited_model/model/dense_2/BiasAdd"
        ],
        "name": "StatefulPartitionedCall/edited_model/model/dense_2/Gelu/mul",
        "op": "Mul"
      },
      {
        "attr": { "T": { "type": "DT_FLOAT" } },
        "input": [
          "StatefulPartitionedCall/edited_model/model/dense_2/BiasAdd",
          "ConstantFolding/StatefulPartitionedCall/edited_model/model/dense_2/Gelu/truediv_recip"
        ],
        "name": "StatefulPartitionedCall/edited_model/model/dense_2/Gelu/truediv",
        "op": "Mul"
      },
      {
        "attr": { "T": { "type": "DT_FLOAT" } },
        "input": ["StatefulPartitionedCall/edited_model/model/dense_2/Gelu/truediv"],
        "name": "StatefulPartitionedCall/edited_model/model/dense_2/Gelu/Erf",
        "op": "Erf"
      },
      {
        "attr": { "T": { "type": "DT_FLOAT" } },
        "input": [
          "StatefulPartitionedCall/edited_model/model/dense_2/Gelu/add/x",
          "StatefulPartitionedCall/edited_model/model/dense_2/Gelu/Erf"
        ],
        "name": "StatefulPartitionedCall/edited_model/model/dense_2/Gelu/add",
        "op": "AddV2"
      },
      {
        "attr": {
          "T": { "type": "DT_FLOAT" },
          "_grappler_ArithmeticOptimizer_MinimizeBroadcasts": { "b": true }
        },
        "input": [
          "StatefulPartitionedCall/edited_model/model/dense_2/Gelu/mul",
          "StatefulPartitionedCall/edited_model/model/dense_2/Gelu/add"
        ],
        "name": "StatefulPartitionedCall/edited_model/model/dense_2/Gelu/mul_1",
        "op": "Mul"
      },
      {
        "attr": {
          "T": { "type": "DT_FLOAT" },
          "Tidx": { "type": "DT_INT32" },
          "keep_dims": { "b": false }
        },
        "input": [
          "StatefulPartitionedCall/edited_model/model/dense_2/Gelu/mul_1",
          "StatefulPartitionedCall/edited_model/model/global_max_pooling1d/Max/reduction_indices"
        ],
        "name": "StatefulPartitionedCall/edited_model/model/global_max_pooling1d/Max",
        "op": "Max"
      },
      {
        "attr": {
          "T": { "type": "DT_FLOAT" },
          "out_type": { "type": "DT_INT32" }
        },
        "experimentalType": {
          "args": [
            {
              "args": [{ "typeId": "TFT_INT32" }],
              "typeId": "TFT_SHAPE_TENSOR"
            }
          ],
          "typeId": "TFT_PRODUCT"
        },
        "input": ["StatefulPartitionedCall/edited_model/model/global_max_pooling1d/Max"],
        "name": "StatefulPartitionedCall/edited_model/reshape_0/Shape",
        "op": "Shape"
      },
      {
        "attr": {
          "Index": { "type": "DT_INT32" },
          "T": { "type": "DT_INT32" },
          "begin_mask": { "i": "0" },
          "ellipsis_mask": { "i": "0" },
          "end_mask": { "i": "0" },
          "new_axis_mask": { "i": "0" },
          "shrink_axis_mask": { "i": "1" }
        },
        "input": [
          "StatefulPartitionedCall/edited_model/reshape_0/Shape",
          "StatefulPartitionedCall/edited_model/reshape_0/strided_slice/stack",
          "StatefulPartitionedCall/edited_model/reshape_0/strided_slice/stack_1",
          "StatefulPartitionedCall/edited_model/reshape_0/strided_slice/stack_2"
        ],
        "name": "StatefulPartitionedCall/edited_model/reshape_0/strided_slice",
        "op": "StridedSlice"
      },
      {
        "attr": {
          "N": { "i": "3" },
          "T": { "type": "DT_INT32" },
          "axis": { "i": "0" }
        },
        "input": [
          "StatefulPartitionedCall/edited_model/reshape_0/strided_slice",
          "StatefulPartitionedCall/edited_model/reshape_0/Reshape/shape/1",
          "StatefulPartitionedCall/edited_model/reshape_0/Reshape/shape/2"
        ],
        "name": "StatefulPartitionedCall/edited_model/reshape_0/Reshape/shape",
        "op": "Pack"
      },
      {
        "attr": {
          "T": { "type": "DT_FLOAT" },
          "Tshape": { "type": "DT_INT32" }
        },
        "input": [
          "StatefulPartitionedCall/edited_model/model/global_max_pooling1d/Max",
          "StatefulPartitionedCall/edited_model/reshape_0/Reshape/shape"
        ],
        "name": "StatefulPartitionedCall/edited_model/reshape_0/Reshape",
        "op": "Reshape"
      },
      {
        "attr": {
          "T": { "type": "DT_FLOAT" },
          "Tidx": { "type": "DT_INT32" },
          "keep_dims": { "b": true }
        },
        "input": [
          "StatefulPartitionedCall/edited_model/reshape_0/Reshape",
          "StatefulPartitionedCall/edited_model/layer_normalization_16/moments/mean/reduction_indices"
        ],
        "name": "StatefulPartitionedCall/edited_model/layer_normalization_16/moments/mean",
        "op": "Mean"
      },
      {
        "attr": { "T": { "type": "DT_FLOAT" } },
        "input": [
          "StatefulPartitionedCall/edited_model/reshape_0/Reshape",
          "StatefulPartitionedCall/edited_model/layer_normalization_16/moments/mean"
        ],
        "name": "StatefulPartitionedCall/edited_model/layer_normalization_16/moments/SquaredDifference",
        "op": "SquaredDifference"
      },
      {
        "attr": {
          "T": { "type": "DT_FLOAT" },
          "Tidx": { "type": "DT_INT32" },
          "keep_dims": { "b": true }
        },
        "input": [
          "StatefulPartitionedCall/edited_model/layer_normalization_16/moments/SquaredDifference",
          "StatefulPartitionedCall/edited_model/layer_normalization_16/moments/variance/reduction_indices"
        ],
        "name": "StatefulPartitionedCall/edited_model/layer_normalization_16/moments/variance",
        "op": "Mean"
      },
      {
        "attr": { "T": { "type": "DT_FLOAT" } },
        "input": [
          "StatefulPartitionedCall/edited_model/layer_normalization_16/moments/variance",
          "StatefulPartitionedCall/edited_model/layer_normalization_16/batchnorm/add/y"
        ],
        "name": "StatefulPartitionedCall/edited_model/layer_normalization_16/batchnorm/add",
        "op": "AddV2"
      },
      {
        "attr": { "T": { "type": "DT_FLOAT" } },
        "input": ["StatefulPartitionedCall/edited_model/layer_normalization_16/batchnorm/add"],
        "name": "StatefulPartitionedCall/edited_model/layer_normalization_16/batchnorm/Rsqrt",
        "op": "Rsqrt"
      },
      {
        "attr": { "T": { "type": "DT_FLOAT" } },
        "input": [
          "StatefulPartitionedCall/edited_model/layer_normalization_16/batchnorm/Rsqrt",
          "StatefulPartitionedCall/edited_model/layer_normalization_16/Reshape"
        ],
        "name": "StatefulPartitionedCall/edited_model/layer_normalization_16/batchnorm/mul",
        "op": "Mul"
      },
      {
        "attr": { "T": { "type": "DT_FLOAT" } },
        "input": [
          "StatefulPartitionedCall/edited_model/layer_normalization_16/moments/mean",
          "StatefulPartitionedCall/edited_model/layer_normalization_16/batchnorm/mul"
        ],
        "name": "StatefulPartitionedCall/edited_model/layer_normalization_16/batchnorm/mul_2",
        "op": "Mul"
      },
      {
        "attr": { "T": { "type": "DT_FLOAT" } },
        "input": [
          "StatefulPartitionedCall/edited_model/reshape_0/Reshape",
          "StatefulPartitionedCall/edited_model/layer_normalization_16/batchnorm/mul"
        ],
        "name": "StatefulPartitionedCall/edited_model/layer_normalization_16/batchnorm/mul_1",
        "op": "Mul"
      },
      {
        "attr": { "T": { "type": "DT_FLOAT" } },
        "input": [
          "StatefulPartitionedCall/edited_model/layer_normalization_16/Reshape_1",
          "StatefulPartitionedCall/edited_model/layer_normalization_16/batchnorm/mul_2"
        ],
        "name": "StatefulPartitionedCall/edited_model/layer_normalization_16/batchnorm/sub",
        "op": "Sub"
      },
      {
        "attr": { "T": { "type": "DT_FLOAT" } },
        "input": [
          "StatefulPartitionedCall/edited_model/layer_normalization_16/batchnorm/mul_1",
          "StatefulPartitionedCall/edited_model/layer_normalization_16/batchnorm/sub"
        ],
        "name": "StatefulPartitionedCall/edited_model/layer_normalization_16/batchnorm/add_1",
        "op": "AddV2"
      },
      {
        "attr": {
          "T": { "type": "DT_FLOAT" },
          "Tshape": { "type": "DT_INT32" }
        },
        "input": [
          "StatefulPartitionedCall/edited_model/layer_normalization_16/batchnorm/add_1",
          "StatefulPartitionedCall/edited_model/flatten_15/Const"
        ],
        "name": "StatefulPartitionedCall/edited_model/flatten_15/Reshape",
        "op": "Reshape"
      },
      {
        "attr": {
          "T": { "type": "DT_FLOAT" },
          "epsilon": { "f": 0.0 },
          "fused_ops": { "list": { "s": ["Qmlhc0FkZA=="] } },
          "leakyrelu_alpha": { "f": 0.2 },
          "num_args": { "i": "1" },
          "transpose_a": { "b": false },
          "transpose_b": { "b": false }
        },
        "device": "/device:CPU:0",
        "input": [
          "StatefulPartitionedCall/edited_model/flatten_15/Reshape",
          "StatefulPartitionedCall/edited_model/model_1/target_label/MatMul/ReadVariableOp",
          "StatefulPartitionedCall/edited_model/model_1/target_label/BiasAdd/ReadVariableOp"
        ],
        "name": "StatefulPartitionedCall/edited_model/model_1/target_label/BiasAdd",
        "op": "_FusedMatMul"
      },
      {
        "attr": { "T": { "type": "DT_FLOAT" } },
        "input": ["StatefulPartitionedCall/edited_model/model_1/target_label/BiasAdd"],
        "name": "StatefulPartitionedCall/edited_model/model_1/target_label/Softmax",
        "op": "Softmax"
      },
      {
        "attr": { "T": { "type": "DT_FLOAT" } },
        "input": ["StatefulPartitionedCall/edited_model/model_1/target_label/Softmax"],
        "name": "Identity",
        "op": "Identity"
      }
    ],
    "versions": { "producer": 1645 }
  },
  "signature": {
    "inputs": {
      "model_input": {
        "dtype": "DT_FLOAT",
        "name": "model_input:0",
        "tensorShape": { "dim": [{ "size": "-1" }, { "size": "1536" }] }
      }
    },
    "outputs": {
      "model_1": {
        "dtype": "DT_FLOAT",
        "name": "Identity:0",
        "tensorShape": { "dim": [{ "size": "-1" }, { "size": "113" }] }
      }
    }
  },
  "weightsManifest": [
    {
      "paths": ["group1-shard1of1.bin"],
      "weights": [
        {
          "dtype": "float32",
          "name": "StatefulPartitionedCall/edited_model/layer_normalization_16/Reshape_1",
          "shape": [1, 256, 1]
        },
        {
          "dtype": "float32",
          "name": "StatefulPartitionedCall/edited_model/model/dense_2/Gelu/mul/x",
          "shape": []
        },
        {
          "dtype": "float32",
          "name": "StatefulPartitionedCall/edited_model/model/dense_2/Gelu/add/x",
          "shape": []
        },
        {
          "dtype": "int32",
          "name": "StatefulPartitionedCall/edited_model/model/dense_2/Tensordot/Const",
          "shape": [1]
        },
        {
          "dtype": "int32",
          "name": "StatefulPartitionedCall/edited_model/model/dense_2/Tensordot/axes",
          "shape": [1]
        },
        {
          "dtype": "int32",
          "name": "StatefulPartitionedCall/edited_model/model/dense_2/Tensordot/GatherV2_1/axis",
          "shape": []
        },
        {
          "dtype": "int32",
          "name": "StatefulPartitionedCall/edited_model/model/dense_2/Tensordot/Const_1",
          "shape": [1]
        },
        {
          "dtype": "float32",
          "name": "StatefulPartitionedCall/edited_model/model/dense_2/Tensordot/ReadVariableOp",
          "shape": [256, 256]
        },
        {
          "dtype": "float32",
          "name": "StatefulPartitionedCall/edited_model/model/dense_1/Gelu/mul/x",
          "shape": []
        },
        {
          "dtype": "float32",
          "name": "StatefulPartitionedCall/edited_model/model/dense_1/Gelu/add/x",
          "shape": []
        },
        {
          "dtype": "int32",
          "name": "StatefulPartitionedCall/edited_model/model/dense_1/Tensordot/Const",
          "shape": [1]
        },
        {
          "dtype": "int32",
          "name": "StatefulPartitionedCall/edited_model/model/dense_1/Tensordot/axes",
          "shape": [1]
        },
        {
          "dtype": "int32",
          "name": "StatefulPartitionedCall/edited_model/model/dense_1/Tensordot/GatherV2_1/axis",
          "shape": []
        },
        {
          "dtype": "int32",
          "name": "StatefulPartitionedCall/edited_model/model/dense_1/Tensordot/Const_1",
          "shape": [1]
        },
        {
          "dtype": "float32",
          "name": "StatefulPartitionedCall/edited_model/model/dense_1/Tensordot/ReadVariableOp",
          "shape": [512, 256]
        },
        {
          "dtype": "float32",
          "name": "StatefulPartitionedCall/edited_model/model/layer_normalization/Reshape_1",
          "shape": [1, 384, 1]
        },
        {
          "dtype": "float32",
          "name": "StatefulPartitionedCall/edited_model/model/dense/Gelu/mul/x",
          "shape": []
        },
        {
          "dtype": "float32",
          "name": "StatefulPartitionedCall/edited_model/model/dense/Gelu/add/x",
          "shape": []
        },
        {
          "dtype": "int32",
          "name": "StatefulPartitionedCall/edited_model/model/dense/Tensordot/Const",
          "shape": [1]
        },
        {
          "dtype": "int32",
          "name": "StatefulPartitionedCall/edited_model/model/dense/Tensordot/axes",
          "shape": [1]
        },
        {
          "dtype": "int32",
          "name": "StatefulPartitionedCall/edited_model/model/dense/Tensordot/GatherV2_1/axis",
          "shape": []
        },
        {
          "dtype": "int32",
          "name": "StatefulPartitionedCall/edited_model/model/dense/Tensordot/Const_1",
          "shape": [1]
        },
        {
          "dtype": "float32",
          "name": "StatefulPartitionedCall/edited_model/model/dense/Tensordot/ReadVariableOp",
          "shape": [257, 128]
        },
        {
          "dtype": "int32",
          "name": "StatefulPartitionedCall/edited_model/model/tf.one_hot/one_hot/depth",
          "shape": []
        },
        {
          "dtype": "float32",
          "name": "StatefulPartitionedCall/edited_model/model/tf.one_hot/one_hot/on_value",
          "shape": []
        },
        {
          "dtype": "float32",
          "name": "StatefulPartitionedCall/edited_model/model/tf.one_hot/one_hot/off_value",
          "shape": []
        },
        {
          "dtype": "int32",
          "name": "StatefulPartitionedCall/edited_model/model/dense/Tensordot/free",
          "shape": [2]
        },
        {
          "dtype": "int32",
          "name": "StatefulPartitionedCall/edited_model/model/dense/Tensordot/GatherV2/axis",
          "shape": []
        },
        {
          "dtype": "int32",
          "name": "StatefulPartitionedCall/edited_model/model/dense/Tensordot/Const_2",
          "shape": [1]
        },
        {
          "dtype": "int32",
          "name": "StatefulPartitionedCall/edited_model/model/dense/Tensordot/concat_1/axis",
          "shape": []
        },
        {
          "dtype": "float32",
          "name": "StatefulPartitionedCall/edited_model/model/dense/BiasAdd/ReadVariableOp",
          "shape": [128]
        },
        {
          "dtype": "float32",
          "name": "ConstantFolding/StatefulPartitionedCall/edited_model/model/dense/Gelu/truediv_recip",
          "shape": []
        },
        {
          "dtype": "int32",
          "name": "StatefulPartitionedCall/edited_model/model/reshape/strided_slice/stack",
          "shape": [1]
        },
        {
          "dtype": "int32",
          "name": "StatefulPartitionedCall/edited_model/model/reshape/strided_slice/stack_1",
          "shape": [1]
        },
        {
          "dtype": "int32",
          "name": "StatefulPartitionedCall/edited_model/model/reshape/strided_slice/stack_2",
          "shape": [1]
        },
        {
          "dtype": "int32",
          "name": "StatefulPartitionedCall/edited_model/model/reshape/Reshape/shape/1",
          "shape": []
        },
        {
          "dtype": "int32",
          "name": "StatefulPartitionedCall/edited_model/model/reshape/Reshape/shape/2",
          "shape": []
        },
        {
          "dtype": "int32",
          "name": "StatefulPartitionedCall/edited_model/model/layer_normalization/moments/mean/reduction_indices",
          "shape": [1]
        },
        {
          "dtype": "int32",
          "name": "StatefulPartitionedCall/edited_model/model/layer_normalization/moments/variance/reduction_indices",
          "shape": [1]
        },
        {
          "dtype": "float32",
          "name": "StatefulPartitionedCall/edited_model/model/layer_normalization/batchnorm/add/y",
          "shape": []
        },
        {
          "dtype": "float32",
          "name": "StatefulPartitionedCall/edited_model/model/layer_normalization/Reshape",
          "shape": [1, 384, 1]
        },
        {
          "dtype": "int32",
          "name": "StatefulPartitionedCall/edited_model/model/dense_1/Tensordot/free",
          "shape": [2]
        },
        {
          "dtype": "int32",
          "name": "StatefulPartitionedCall/edited_model/model/dense_1/Tensordot/GatherV2/axis",
          "shape": []
        },
        {
          "dtype": "int32",
          "name": "StatefulPartitionedCall/edited_model/model/dense_1/Tensordot/Const_2",
          "shape": [1]
        },
        {
          "dtype": "int32",
          "name": "StatefulPartitionedCall/edited_model/model/dense_1/Tensordot/concat_1/axis",
          "shape": []
        },
        {
          "dtype": "float32",
          "name": "StatefulPartitionedCall/edited_model/model/dense_1/BiasAdd/ReadVariableOp",
          "shape": [256]
        },
        {
          "dtype": "float32",
          "name": "ConstantFolding/StatefulPartitionedCall/edited_model/model/dense_1/Gelu/truediv_recip",
          "shape": []
        },
        {
          "dtype": "int32",
          "name": "StatefulPartitionedCall/edited_model/model/dense_2/Tensordot/free",
          "shape": [2]
        },
        {
          "dtype": "int32",
          "name": "StatefulPartitionedCall/edited_model/model/dense_2/Tensordot/GatherV2/axis",
          "shape": []
        },
        {
          "dtype": "int32",
          "name": "StatefulPartitionedCall/edited_model/model/dense_2/Tensordot/Const_2",
          "shape": [1]
        },
        {
          "dtype": "int32",
          "name": "StatefulPartitionedCall/edited_model/model/dense_2/Tensordot/concat_1/axis",
          "shape": []
        },
        {
          "dtype": "float32",
          "name": "StatefulPartitionedCall/edited_model/model/dense_2/BiasAdd/ReadVariableOp",
          "shape": [256]
        },
        {
          "dtype": "float32",
          "name": "ConstantFolding/StatefulPartitionedCall/edited_model/model/dense_2/Gelu/truediv_recip",
          "shape": []
        },
        {
          "dtype": "int32",
          "name": "StatefulPartitionedCall/edited_model/model/global_max_pooling1d/Max/reduction_indices",
          "shape": []
        },
        {
          "dtype": "int32",
          "name": "StatefulPartitionedCall/edited_model/reshape_0/strided_slice/stack",
          "shape": [1]
        },
        {
          "dtype": "int32",
          "name": "StatefulPartitionedCall/edited_model/reshape_0/strided_slice/stack_1",
          "shape": [1]
        },
        {
          "dtype": "int32",
          "name": "StatefulPartitionedCall/edited_model/reshape_0/strided_slice/stack_2",
          "shape": [1]
        },
        {
          "dtype": "int32",
          "name": "StatefulPartitionedCall/edited_model/reshape_0/Reshape/shape/1",
          "shape": []
        },
        {
          "dtype": "int32",
          "name": "StatefulPartitionedCall/edited_model/reshape_0/Reshape/shape/2",
          "shape": []
        },
        {
          "dtype": "int32",
          "name": "StatefulPartitionedCall/edited_model/layer_normalization_16/moments/mean/reduction_indices",
          "shape": [1]
        },
        {
          "dtype": "int32",
          "name": "StatefulPartitionedCall/edited_model/layer_normalization_16/moments/variance/reduction_indices",
          "shape": [1]
        },
        {
          "dtype": "float32",
          "name": "StatefulPartitionedCall/edited_model/layer_normalization_16/batchnorm/add/y",
          "shape": []
        },
        {
          "dtype": "float32",
          "name": "StatefulPartitionedCall/edited_model/layer_normalization_16/Reshape",
          "shape": [1, 256, 1]
        },
        {
          "dtype": "int32",
          "name": "StatefulPartitionedCall/edited_model/flatten_15/Const",
          "shape": [2]
        },
        {
          "dtype": "float32",
          "name": "StatefulPartitionedCall/edited_model/model_1/target_label/MatMul/ReadVariableOp",
          "shape": [256, 113]
        },
        {
          "dtype": "float32",
          "name": "StatefulPartitionedCall/edited_model/model_1/target_label/BiasAdd/ReadVariableOp",
          "shape": [113]
        }
      ]
    }
  ]
}
